model_weight.pth (torch, 1951 bytes, 4 tensors)

weight_params.0 f4 [7, 8]
00000000: 1797 493f a8c5 4f3f 149d 3b3f be91 2d3f
00000010: f4a1 fdbe 4da2 0f3f b5da eabd e4fe f13e
00000020: fb1a 13bf 0e5a 76bf 2683 19bf 4c91 79bf
00000030: 603a 14be b85a 673f ec9f 34bf 91cc 51bf
00000040: a16b 1d3f 77d7 8abf 10f5 a3bd aa37 3cbf
00000050: fb19 2b3f ff3a 263f e0b7 e63d 0ecb 433f
00000060: ccbe f93e bc94 30bf 848c 55bf e096 ea3e
00000070: 7463 ec3e 879d 13bf da89 ea3c bbc6 733f
00000080: 068d 563f f071 2dbe 68dd 553e 207d 4a3e
00000090: 6328 083f 24e8 ffbe 60b8 a5be 1eaf 163f
000000a0: 58e3 6cbe 2047 07bd 217b 42bf fcc5 38be
000000b0: a0c0 943d a84c 2bbe 0cf7 173f a09b 3ebd
000000c0: 40aa da3e 535b 23bf 0a40 913e c8e9 36bc
000000d0: 78c4 2abe 606e 7d3d 48db 8cbe b363 55bd
0.7874617 0.81160975 0.7328656 0.6780051 -0.49537623 0.56107026 -0.11467496 0.4726478
-0.57463044 -0.9623116 -0.5996574 -0.9748733 -0.14475393 0.903728 -0.7055652 -0.8195277
0.61492354 -1.0847005 -0.08005726 -0.73522437 0.6683652 0.6493377 0.1126554 0.7648171
0.4877838 -0.6897695 -0.83417535 0.45818233 0.46169627 -0.5766224 0.028630186 0.95225114
0.83808935 -0.16937995 0.20885241 0.19774294 0.53186625 -0.49981797 -0.3236723 0.5886096
-0.231336 -0.033026814 -0.7596913 -0.18044275 0.07263303 -0.16728461 0.5936134 -0.046535134
0.42708015 -0.63811225 0.2836917 -0.011164136 -0.1667651 0.06187284 -0.27511048 -0.052097034

weight_params.1 f4 [8, 4]
00000000: b064 84be e83e 523e e428 d03e 4d25 c53d
00000010: d8d8 753e fe37 363f 4ed4 8c3e 40bf 653f
00000020: e842 3e3e 4359 033f 7924 2d3f 8fa4 ffbe
00000030: 9c32 1fbf 583b 2bbe a771 413f 5aef f03e
00000040: d812 23be 9bbc 023f 5295 28bf e8fd d73b
00000050: acd2 b83e 088d 03bf e009 0a3f fc3b babe
00000060: 214f 46be 6004 783f 9cdf 51bf 3e1c 42bf
00000070: 6331 c7be 08d6 2fbf 8bf4 093f 9a4a 21bf
-0.25858068 0.2053181 0.40656197 0.09626255 0.240085 0.7117919 0.27505726 0.8974495
0.1858021 0.5130808 0.6763378 -0.49930236 -0.621866 -0.16721857 0.75564045 0.4705761
-0.15925157 0.5106904 -0.65852845 0.0065915473 0.3609823 -0.5138707 0.5392132 -0.3637389
-0.19366123 0.96881676 -0.81981826 -0.75824344 -0.38904867 -0.6868596 0.5388877 -0.6300446

bias_params.0 f4 [1, 8]
00000000: b621 78bf 9a47 21bf 303c 58bf 6023 a1be
00000010: 4ef1 1fbe 42dd 26bf 392b e9bd bef5 28bf
-0.9692644 -0.6299988 -0.8446684 -0.314723 -0.15619394 -0.6518136 -0.11385197 -0.6599997

bias_params.1 f4 [1, 4]
00000000: a4de b23e 27d0 0a3f d8c8 67be 4c84 de3e
0.34935486 0.54223865 -0.2263521 0.4346031
